save_models/encoder_model_I32.pt (torch, 197277 bytes, 20 tensors)

weight f4 [64, 1]
00000000: 3075 163f cfde e03e 9663 42bf 066d 5dbf
00000010: 14de 0bbf 2f2e 6d3f 8457 22bf a2d7 0d3e
00000020: 0fbf 003e ff88 413f b6d5 7bbf eca8 57bf
00000030: 584d 58be 5c8f efbe 5dd9 1c3f 1088 b63d
00000040: a33f 4f3d cb4b 083d 1e6e 0d3e 95c5 983e
00000050: 9717 bd3e e03b c03e bcd4 9dbe d4e0 ebbe
00000060: 1f93 693f 7050 2b3f 72eb 4cbf 93ef c03d
00000070: bcf3 92be 1115 173f 786d 45be 38cf 1f3f
00000080: 6e6c 213f 782f 79bf 08eb 08bf 8a58 36bf
00000090: 6933 713f 9728 0f3f 981f e83e 50ce 343f
000000a0: ed2f 8d3e c0a8 92bd 3119 833e bc70 623f
000000b0: f219 44bf 0bc3 a23e c0e3 58be 44c2 02bf
000000c0: e16b fd3e 10a5 57bf 48e4 cdbe 0036 86bd
000000d0: cdf6 3a3f c438 93be 16d7 4cbf 6ce8 853e
000000e0: 7352 4c3f e623 d33d 9829 233f 5a38 203f
000000f0: 9448 70bf b0d2 a0be 80bc a4bc 905e f43d
0.58772564 0.4391999 -0.75933206 -0.8649448 -0.5463574 0.92648596 -0.6341479 0.13851789
0.12572883 0.75599664 -0.9837297 -0.8424213 -0.21123254 -0.46789062 0.6126917 0.089126706
0.050597798 0.033275407 0.13811538 0.29838243 0.3693206 0.3754568 -0.30826366 -0.46069968
0.91240114 0.6691961 -0.8004676 0.09420695 -0.2870158 0.5901652 -0.1928004 0.62425566
0.63056076 -0.97338057 -0.5348363 -0.7122885 0.9421907 0.5592131 0.45336604 0.7062731
0.27575627 -0.07161093 0.25605157 0.8845327 -0.7660209 0.3178943 -0.2118063 -0.51077676
0.49496368 -0.8423624 -0.40213227 -0.065532684 0.7303284 -0.28754246 -0.80015695 0.26153886
0.7981331 0.103095815 0.6373534 0.62585986 -0.93860745 -0.31410742 -0.020109415 0.11932099

bias f4 [64]
00000000: 8ef5 19bf bb06 d73e e044 0ebf ce9e 3a3f
00000010: 80ee 693c c2b1 bcbe 8004 7b3c 3f48 243f
00000020: 891f 353f 35f6 fcbe 3abc 60bf f243 7ebf
00000030: b647 56bf bc09 d9be d638 263e 9531 05bf
00000040: 2dea 8d3e 1ba2 70bf be11 5fbf 8166 b9bd
00000050: 5b3f fe3e dd4b 783f 3cf2 c4be 38ce 403e
00000060: 8f7b 6fbf 792a 373e 9e0d 0fbf 4611 e6be
00000070: e4f3 bf3e d234 f53e 6e7c 5e3f 54fb 72bf
00000080: 4cdb 8bbe dacd 3fbf 9662 793f 488b 01be
00000090: fa96 063f 24a7 b23e e483 603f 9839 f0be
000000a0: 236c b03e fca4 833e b66e 3fbf 78cb 41bf
000000b0: 60af 823e 1bc4 3abe 00a6 58bf 6c30 f33e
000000c0: a3a9 8fbe 320c 58bf a07a 9b3e c0d0 173d
000000d0: 0f6b 173f 7a7e 12bf a430 083f 14f5 5d3f
000000e0: 4231 cd3e 3258 373f cd24 c83d 7794 2f3d
000000f0: 1e67 7d3f 50c2 f53d 6ad7 3fbf 9d96 fdbe
-0.6014031 0.41997322 -0.55573845 0.72898567 0.014278054 -0.36854368 0.015320897 0.6417274
0.70751244 -0.4940659 -0.8778721 -0.99322426 -0.8370317 -0.4239024 0.16232619 -0.5202878
0.27717724 -0.93997353 -0.8713645 -0.09052754 0.4965771 0.9699076 -0.3846606 0.18828666
-0.9354791 0.17887296 -0.55880153 -0.44935054 0.3749076 0.4789186 0.86908615 -0.94914746
-0.27315748 -0.7492348 0.97416055 -0.12650788 0.5257412 0.34893143 0.8770125 -0.4691894
0.34457502 0.2571181 -0.74778306 -0.75701094 0.25524426 -0.18238871 -0.84628296 0.4749788
-0.2805911 -0.8439361 0.30366993 0.037064314 0.59147733 -0.5722424 0.5319922 0.86702085
0.40076643 0.7161895 0.09772644 0.042866196 0.9898547 0.11999953 -0.7493807 -0.4952897

weight f4 [64, 64]
00000000: 6a19 c53d 85b4 f73d fc1b bcbd 763d b8bd
00000010: 5821 483d 244c ba3d 8e25 fe3d 1bcf 373d
00000020: d62d c33d 691d 0e3e d05a 343d 3846 87bc
00000030: 50b0 eebd 34fc 98bd 08eb 0d3e 1058 953d
00000040: 2d6c e93d e47e 0a3e 0a51 c73d fb7a 63bd
00000050: 8795 a8bc a1cc 2c3d d88c 773d 2098 c03c
00000060: f1b1 a2bd b905 84bd 14be 1f3d be1f a53d
00000070: 7c6b d9bd 39ad 073e 48d7 7e3d 06aa 003d
00000080: bb5b 593d be36 c53d c8bf 9c3c 1014 df3d
00000090: 74c5 d73b 8471 95bb 435c 5e3d e0c4 0e3e
000000a0: acac a43d a0d6 54bc a053 063e 1285 c93d
000000b0: f8e9 bdbc 5eee 8f3d 2ee0 b3bd fcf2 1f3d
000000c0: 34a6 36ba 3874 7bbd 0011 853d 9e27 913d
000000d0: 1ace f13d 781b b83c aacf a4bd 4782 bbbd
000000e0: 44f6 e13b a4d0 56bb 2e22 73bd de8d 98bd
000000f0: 9ae7 ff3d 9a83 e4bd 7e09 e8bd 9bfd c73d
00000100: c61f 053d bb57 773d 3a7b 9abd e05a 8abd
00000110: 2067 6e3d 2cbf 9abd 625f a1bd 8959 12be
00000120: f686 22be eb78 00bd 18a6 49bd 7cf8 debd
00000130: 6052 7dbd 50f2 6d3d a56f b23c 6e91 78bc
00000140: 48ac bc39 e377 423b d8c5 e6bc b151 48bd
00000150: 7ad7 a0bd 8aa6 97bd 34d8 083d fcca c43d
00000160: ecd9 99bd 2906 fbbd 3467 e9bd 9ee9 3e3d
00000170: 004a ffb9 5c45 d7bd 566c bd3d cfa9 98bd
00000180: a874 10be 1423 01bd d239 d4bd 481b bfbc
00000190: 6888 3cbd e5dd 813d e6fb 15be 1863 16be
000001a0: 6b29 02bc f0ff d43c 7619 213d 24cf b13d
000001b0: 98ab f03d f016 5cbc f082 513d 447f 2dbd
000001c0: b4b3 5ebd 9adb dd3d d6ab c8bd 08c4 c23d
000001d0: c01a 9d3b c815 56bd 8cfd eebd 2e4a 8cbd
000001e0: 03c2 e8bd 0d35 05be 2c42 973d db2b a33d
000001f0: 3407 08bd 5043 2d3c 4ae3 e2bd f2b4 aebd
00000200: 3afa cc3d f665 da3d 80fc d23b 9880 efbd
00000210: 7cb9 02bd 7068 a43d 2caf 493d c826 06bd
00000220: 7a9a a93d 009b 9bbd 5c1d d53d 101d a53d
00000230: 0c19 f63d 2c42 d53d 1405 bbbd d00c 9c3c
00000240: 4cfe 7b3d bc27 00bd 1ca4 20bd e468 e4bd
00000250: 7cb2 9c3d 3088 dc3d 3cd8 7a3d 7c14 58bd
00000260: 88fa 8bbd 703a 3e3c ccf8 343d 5ed0 ce3d
00000270: 5010 01bd dcb8 a6bd a0d7 20bc 4ccc 9b3d
00000280: 1044 6abd c8f2 fabc 30b8 24bd 2e04 bb3d
00000290: 2a56 babd 3cd6 643d b227 bbbd 8010 b33a
000002a0: 7468 843d d40a 4ebd e00e f03d 805f 1b3b
000002b0: f023 eb3d 38b1 b93c c4fd 0bbd 608e 11bc
000002c0: 6ca2 afbd 8e99 da3d 6852 b1bd 20b8 93bd
000002d0: bc37 933d a8ee 143d 6c23 7bbd f856 70bd
000002e0: 8001 37bd f876 efbd 80b9 0fbd a8f5 ff3c
000002f0: cc3d 383d 8e96 bebd c0e0 d93d 44e4 5e3d
00000300: a433 95bc 1912 123e ce30 a9bd dc69 5b3d
00000310: 9221 aebd 7104 b83d 7094 15bc 116e 6b3d
00000320: e217 3b3d 76d4 093d 3805 9b3c c074 8e3d
00000330: feb0 bb3d 80da 5d3d 1da3 a1bd 8e24 f23d
00000340: ca44 26bd 20be 963d 194e 413d 68ea cebb
00000350: b2d8 a93d 6505 bb3d 8886 a93c 20e0 2d3c
00000360: d96b c3bd 41d8 8ebc 8a32 bf3d 38cf 44bc
00000370: b6a4 c13d 78ca 3c3d c444 203d 4128 4c3c
00000380: 5dd5 ce3d 003c 1ab9 76fa febd b8c1 50bd
00000390: 9349 ff3d 576c e33d 99cc 133e b871 25bd
000003a0: 2ff4 3d3d f8d1 a53d a21d 933c bca6 a3bc
000003b0: 9035 19bd fd07 ef3d e63a 9ebd 80c7 133c
000003c0: 3f27 3dbd 5882 76bd 3899 10bd e45b 413d
000003d0: 4b64 d63d f436 86bd c828 823d f40d 903d
000003e0: d395 883d 2322 053e 20c4 8b3d a74a c53d
000003f0: 288b 6f3d 32d5 883d b649 c13d f211 b43d
0.09623988 0.12094978 -0.09185025 -0.08996098 0.048859924 0.09096554 0.12409507 0.044875246
0.09530227 0.13878407 0.044031918 -0.016512975 -0.11654723 -0.07469979 0.13859189 0.07292187
0.11397586 0.13524967 0.09732254 -0.055537205 -0.020579113 0.042187337 0.060437053 0.023510039
-0.07944096 -0.06446404 0.038999632 0.08062695 -0.10616204 0.13249673 0.062217027 0.031412147
0.053065997 0.09629582 0.019134417 0.108924985 0.0065848175 -0.0045606513 0.054287206 0.1394229
0.08040747 -0.012990624 0.13117838 0.09839834 -0.023182854 0.07027887 -0.08782993 0.039050087
-0.0006967515 -0.06139013 0.06497383 0.070876345 0.11806889 0.022474036 -0.08047421 -0.09155708
0.006895812 -0.0032778168 -0.05935877 -0.07448934 0.12495346 -0.111579135 -0.113299355 0.09765168
0.032501005 0.0603864 -0.07543035 -0.06755614 0.058203816 -0.075559944 -0.07879521 -0.14291967
-0.15871796 -0.031365316 -0.049230665 -0.108872384 -0.061846137 0.058092415 0.021781752 -0.015171392
0.00035986514 0.0029673509 -0.028170511 -0.048906032 -0.07853599 -0.07404812 0.033409312 0.09609029
-0.075122684 -0.12257034 -0.113966376 0.046609513 -0.00048692524 -0.10511276 0.09249179 -0.074542634
-0.14107001 -0.031527594 -0.10362591 -0.023328438 -0.046028525 0.06341151 -0.14646873 -0.14686239
-0.007944445 0.026000947 0.039330922 0.08682087 0.11751479 -0.013433203 0.051150262 -0.042357698
-0.054370597 0.10832901 -0.097984 0.09510046 0.0047944486 -0.052266866 -0.11669454 -0.06850086
-0.1136513 -0.13008519 0.07385668 0.07967349 -0.033209994 0.010575131 -0.11078508 -0.08530606
0.100086644 0.10663979 0.0064387918 -0.11694449 -0.031915173 0.08027732 0.049239323 -0.03275183
0.08281417 -0.07597923 0.104059905 0.08062184 0.12016496 0.10413012 -0.09131828 0.019049078
0.061521813 -0.031287894 -0.039219007 -0.11152819 0.07651231 0.10768163 0.061241373 -0.05275391
-0.068348944 0.011610612 0.044182584 0.10098337 -0.031509697 -0.08140728 -0.009817034 0.07607326
-0.057193816 -0.030633345 -0.040214717 0.091316566 -0.09098466 0.055868372 -0.09138431 0.0013661534
0.06465235 -0.050303295 0.11721587 0.0023708045 0.11481464 0.022667512 -0.034177557 -0.0088840425
-0.085759014 0.106738195 -0.08658296 -0.072128534 0.07188365 0.036360413 -0.061313078 -0.05867669
-0.044679165 -0.11692613 -0.035089016 0.031245068 0.04498081 -0.0930606 0.10638571 0.05441691
-0.0182131 0.14264716 -0.08261262 0.053567752 -0.08502497 0.08985222 -0.009129629 0.057478014
0.045677073 0.033649884 0.018923387 0.06955862 0.09164618 0.054163456 -0.078924395 0.118233785
-0.040592946 0.07360482 0.04719362 -0.0063145645 0.082932845 0.09131888 0.020694032 0.010612518
-0.09542055 -0.017437102 0.093358114 -0.012012295 0.09455244 0.046091527 0.03912808 0.012460769
0.100992896 -0.00014708936 -0.124501154 -0.050965995 0.12465205 0.111046486 0.14433517 -0.040391654
0.04637545 0.08096689 0.017958466 -0.019976966 -0.037404597 0.116714455 -0.07726078 0.0090197325
-0.046180006 -0.0601829 -0.03530237 0.047206774 0.10468348 -0.0655345 0.06355435 0.07033911
0.06669202 0.13001303 0.06824517 0.096333794 0.05848232 0.06681289 0.09437887 0.08792485

bias f4 [64]
00000000: 7cf1 8b3d dfa8 763d 987d 1bbd 2ec3 b0bd
00000010: 2c29 493d 7273 903d de77 5d3d 3edf a8bd
00000020: a22d 9abd 0028 46b9 b4a4 92bd 02c9 c53d
00000030: 8c13 66bd c1fe dd3d 6ffc 72bd 42c0 c7bd
00000040: 84df 4fbd 8019 9f3d c629 a23d 407c 85bb
00000050: 742f 47bd 7cff a23c 164e d73d 524d cfbd
00000060: 1079 563c 5a72 9a3d 4447 ac3d 4010 78bb
00000070: a5fa a93d 2d62 c43c b398 883d 20f6 663c
00000080: 482e a8bc 5a03 c2bd 19ca 813d d026 64bd
00000090: c894 4ebd 8506 06bd 71e6 283d 5c3b e6bd
000000a0: 04f1 65bc 3aab 73bd 46c5 cb3d 70d6 14bd
000000b0: a457 903d c469 2f3d 76d0 a73d 70cb fb3c
000000c0: c9d4 f23d b0c9 b1bd 784d f13c b8b0 bcbd
000000d0: 40cd a1bc 3469 8e3d 5ad9 a03c 1068 36bd
000000e0: 385e f2bd f45d 95bd 96c0 acbd e45c b63d
000000f0: 0ac4 aa3d c8b6 eb3c 7e9a ecbd bc4f 313d
0.06833169 0.06021964 -0.037961572 -0.086309776 0.04911153 0.070532694 0.054069392 -0.08245705
-0.07528235 -0.00018897653 -0.07160321 0.0965748 -0.056170985 0.10839606 -0.05932277 -0.09753467
-0.05075027 0.077685356 0.07918124 -0.0040736496 -0.04862924 0.019897215 0.105129406 -0.101221696
0.013090387 0.07541342 0.0841203 -0.0037851483 0.0829976 0.023972595 0.0666975 0.014096767
-0.020529881 -0.094732955 0.06337375 -0.055701077 -0.050434858 -0.03272106 0.04123539 -0.11241791
-0.014034513 -0.059489466 0.09949736 -0.036337316 0.07047966 0.042825475 0.08194058 0.030736655
0.11856992 -0.08681047 0.029455885 -0.09213394 -0.019751191 0.0695366 0.019634891 -0.044532835
-0.11834377 -0.07293311 -0.0843517 0.08904436 0.08338173 0.02877368 -0.115529045 0.04328893

weight f4 [64, 64]
00000000: eb1a 2cbe 0677 4fbc 20d2 67bd 43af 28bd
00000010: 5ec0 843b 89bb e1bd cdbc 2bbd a634 0d3e
00000020: a631 d33c 297d a13c d322 09be 4df5 9b3d
00000030: 10d0 073b c789 9e3d 653d 9cbd 4af6 0fbe
00000040: 908d 403d d5b7 d1bd fb97 95bd 1672 b3bc
00000050: 4b57 0fbe c32d 1fbe 8a9f e3bd 3229 b93d
00000060: f425 063e 2ddb 12be 0409 6bbc 8c0b 0d3e
00000070: 1411 f0bd 5c23 61bc 083f 223d 6966 85bd
00000080: 00da f13d 71e3 43bc c1b2 dabd 1c19 b3bb
00000090: 50a6 463d bf39 3f3d 809f 13be cef5 7bbd
000000a0: 1211 06bd 40f4 2e3d 532b 7f3d 8790 463d
000000b0: a679 1ebe a348 23bd 2c6d d63b 7de3 a8bd
000000c0: e4ef c9bc 9e66 09be 828c 51bd 5649 19bd
000000d0: f662 f43d 2a16 03bd 8418 39bd 3012 1dbc
000000e0: 070e a03d 7825 26be 9bf1 0dbd 1009 a23b
000000f0: 211c 75bd a8bf d1bd 232f 2fbe 3c36 be3d
00000100: eeb1 85bd 5aa3 a33d ada2 7ebd 4c60 f93d
00000110: 0374 163e 61a7 10be 1cda 7ebc 9b0b 993d
00000120: a5e7 933d 14a6 af3d ae61 b13d bfbb 04be
00000130: 7dfb fdbd fab5 0b3d 7388 aabd 9517 18be
00000140: de5b e63d 8d8a 84bd a59c c03d e061 debc
00000150: 6baf 1fbe fe4d b2bd af71 25bc 290c cf3c
00000160: f8d4 533d 1220 04bd 638e 04be 2e7c 1e3e
00000170: ac17 903b c320 e83c cfe3 cabd 2325 5a3d
00000180: 757e 933d cfb8 a2bd 035d df3d 6d47 ad3c
00000190: 6342 273c 575c 003e 35c6 e73d d04b 6fb9
000001a0: 4814 023e e71b 8b3d d3a5 203e 7782 8cbd
000001b0: 52e3 813b 8b40 91bd 6260 7c3d be23 523d
000001c0: 1aa8 573b 52ed c83c ce9f 9abd 0380 0d3e
000001d0: d8d0 c33c d0d3 eebc e979 0b3e aefd 0d3d
000001e0: bc5a 253e 5753 ebba 4ccd 9bbd 0256 ad3d
000001f0: 435d 5fbc c706 29be f41f 84bd c3c7 c5bc
00000200: aacc 81bd b7d9 783d 1994 8f3d 84b7 bebd
00000210: 00c2 0fbd 13c9 e4bd 2b61 153c fe6a dcbb
00000220: c0c2 723c cebf 883c d3e3 cfbd d7c7 85bd
00000230: d038 2ebe a6b7 f0bd 2e50 c53d 118c 18be
00000240: 6eeb f43c bbc2 cf3c c6af 94ba 8ad9 693c
00000250: bb0d d7bb 7208 0cbd d821 583d 9e4f 93bd
00000260: 3328 e4bc 033f 163d 5d39 e5bd 289b 96bd
00000270: fe5d dcbd 528c 793d d0f1 bebd bfb5 46bd
00000280: 43b5 093c 9113 a2bd edf6 dd3b 279e 1d3e
00000290: 9ccd 54bc 857c dc3d e32d 833d 2ab0 f4bd
000002a0: a542 e9bd 1496 ebbd 87e7 8cbc 8ef3 dabd
000002b0: d41f 97bc fed4 0abc a26e 98bd 5242 833d
000002c0: b8c7 c7bd 875b eebb bded 8a3c 3d04 c63a
000002d0: 632a 1d3e 5e18 53bd ef84 503d 213b c93d
000002e0: 865e a8bd 1805 e43d 3418 2b3e 384b d7bd
000002f0: 9c4e 213d 69f4 bcbc 56ba 53bd b45a b1bc
00000300: 0ecd 20bc 1f4d 28bd 3027 ed3c 1fcd cc3d
00000310: 9e2c bdbd 47c9 ae3d b5c6 ec3d 8275 363d
00000320: 46eb d63c be1d 1c3d b2e5 c13d 46cd d93d
00000330: 1dcf 54bc e1be 503d bab3 1e3e 1d49 6abc
00000340: 7340 913b b7c5 cfbc 18f1 683a a941 83bd
00000350: cbaf 5bbd d078 6fbd dce7 c23b 66bc 92bd
00000360: 52b3 90bd a37f 183e 1756 883d 29be c2bd
00000370: 52a6 213d fefa 9ebd b1b9 5c3c b03a 05be
00000380: 2cb5 3ebc abb7 28bd 1cd7 b2bd 3828 813d
00000390: 316d bc3c b551 e43d c89e 56ba ba34 393d
000003a0: f201 123e 135f d33d 8dc3 d2bd cfcf a33d
000003b0: 03ff a33c 72eb 15bc c7df 85bd 1822 96bd
000003c0: 00b5 063d 8d0a a7bd fb04 873d 1db7 a53d
000003d0: e0c7 153d 2eaf 66bd 73cb e33c 46b9 0b3e
000003e0: 3c6a 7bbd b330 303d 96c0 fbbd dda6 f23d
000003f0: a33a bb3d c325 a0bd 2a46 8dba e620 cc3c
-0.16807143 -0.012662655 -0.056596875 -0.041182768 0.0040512523 -0.110220976 -0.0419281 0.13789615
0.02578051 0.019713001 -0.1339219 0.07615147 0.002072338 0.07741123 -0.076288976 -0.14058796
0.047010005 -0.10240141 -0.073043786 -0.021904986 -0.13998143 -0.155448 -0.11114414 0.090410605
0.13100415 -0.14341421 -0.014345411 0.13773936 -0.117220074 -0.0137413405 0.039610893 -0.06513674
0.11809158 -0.011956082 -0.10678626 -0.0054656398 0.04849845 0.04668593 -0.14416313 -0.061513714
-0.032731123 0.042713404 0.062297177 0.048477676 -0.15476093 -0.039864194 0.006543776 -0.08246515
-0.024650522 -0.13418052 -0.05115939 -0.037423454 0.11932938 -0.03200356 -0.045189396 -0.009586856
0.078151755 -0.1622523 -0.03465424 0.004944928 -0.05984128 -0.10241634 -0.17107825 0.09287688
-0.06528078 0.07990141 -0.06216686 0.1217657 0.14692692 -0.1412635 -0.015554931 0.07472917
0.07221917 0.08576599 0.08661209 -0.12962244 -0.12401483 0.034109093 -0.08326807 -0.14852746
0.11247991 -0.06471739 0.094048776 -0.02714628 -0.1559426 -0.08706282 -0.010097905 0.025274353
0.051716775 -0.032257147 -0.12944941 0.15477058 0.004397353 0.028335935 -0.09906732 0.053258073
0.07201854 -0.07945406 0.109064125 0.021152223 0.010208699 0.12535225 0.11317102 -0.00022821059
0.12703049 0.06792431 0.15688257 -0.06860822 0.0039638663 -0.07092389 0.061615355 0.051303618
0.0032906593 0.024527226 -0.075500116 0.13818364 0.023903295 -0.029153734 0.13620724 0.034665756
0.16147894 -0.0017953914 -0.07607517 0.0846367 -0.013633075 -0.16506492 -0.06451407 -0.024143105
-0.06337865 0.060754504 0.07010669 -0.093123466 -0.035097122 -0.11171164 0.009117405 -0.0067266217
0.01481694 0.016693022 -0.10150876 -0.06532257 -0.1701386 -0.11753778 0.09634434 -0.14897181
0.029897418 0.02536141 -0.0011343888 0.014273057 -0.006562916 -0.03418774 0.05276665 -0.0719292
-0.0278512 0.036681186 -0.11192582 -0.073538125 -0.10760115 0.060924836 -0.09323466 -0.04851317
0.008405033 -0.07913888 0.0067738206 0.15392362 -0.012988474 0.10765938 0.064052366 -0.11947663
-0.113896646 -0.115032345 -0.017200245 -0.106909856 -0.018447794 -0.008473633 -0.074429765 0.06409134
-0.0975489 -0.0072740945 0.016959066 0.0015107464 0.153482 -0.05153691 0.050908025 0.09825731
-0.08221154 0.11133784 0.16708452 -0.10512394 0.03938161 -0.023065763 -0.051691376 -0.021649696
-0.009814514 -0.041089173 0.02894935 0.10000061 -0.09237026 0.08534484 0.11561338 0.044545658
0.026235234 0.0381143 0.09467639 0.10634856 -0.012988833 0.050963286 0.15498248 -0.014299658
0.004432732 -0.025362832 0.00088860234 -0.06409008 -0.053634446 -0.058464825 0.00594805 -0.071648404
-0.07065453 0.1489244 0.06657045 -0.095089264 0.039465256 -0.07762717 0.013472007 -0.13010669
-0.011639874 -0.041190784 -0.08732435 0.06306499 0.023001285 0.11148397 -0.00081871124 0.0452163
0.14258555 0.10320868 -0.102912046 0.07998621 0.02001906 -0.009150373 -0.06536823 -0.073307216
0.03288746 -0.08156309 0.06592747 0.08091567 0.03656757 -0.056319408 0.027806973 0.13644895
-0.06138061 0.043015193 -0.12292592 0.11848233 0.091420434 -0.078197025 -0.0010778357 0.024918031

bias f4 [64]
00000000: bc47 d7bd 9172 653d da4a e3bd 318f 30bd
00000010: 9e88 1c3e 8da9 fbbc cca5 d53a 8d1f 17bd
00000020: ca22 ea3d 99c7 e6bd cb2d 6a3d 7750 473d
00000030: e192 a33d fe8a 5fbd ca82 f6bd 4008 91bd
00000040: 8a96 1a3e dde2 25be a372 c53d 6c6c 893d
00000050: be48 00be 3e1b 5e3d 8a22 0bbe 6d33 23bd
00000060: e0cb debd 4a53 7e3d 20a3 c9bd 5136 06be
00000070: 8c4f 3b3d f04f a8bd 7067 01bd cdcb 59bd
00000080: 3f87 0bbe 569d 8dbd e571 0a3e bd95 bcbd
00000090: fd4a 8c3d 7207 eabd 083d f0bc 92ba debd
000000a0: b35c 1e3e f805 9abd d6a8 473d 52f2 c4bd
000000b0: e046 4d3d 9f3d 2dbe 5a92 933b 565a ed3d
000000c0: 9065 a03d 40e9 f0bd dabd ac3d 63e2 dcbd
000000d0: 9ac8 c1bd 3d31 b03d aa7e 9ebc 02b4 32bd
000000e0: aabb 1a3d 2563 0ebe b652 1dbe b3e0 1b3d
000000f0: 6a3c 153d 007b 01be 00e9 2abe c803 cbbc
-0.10511729 0.056017462 -0.11098261 -0.043105308 0.1528649 -0.030720497 0.0016300022 -0.036895324
0.11432417 -0.11268539 0.057172578 0.04866072 0.07986999 -0.054575913 -0.12036665 -0.07081652
0.15096489 -0.16199823 0.09641006 0.06710133 -0.12527749 0.0542252 -0.13587394 -0.039843965
-0.1087873 0.06209115 -0.09845567 -0.13106658 0.04573016 -0.08218372 -0.031592786 -0.053172875
-0.13625811 -0.06914775 0.1352001 -0.09208248 0.068502404 -0.11427201 -0.029325977 -0.10875429
0.1546505 -0.0752067 0.048745 -0.096165314 0.05011642 -0.16918038 0.0045035305 0.11589496
0.078318715 -0.11763239 0.08434649 -0.10785367 -0.0946209 0.086031415 -0.019347508 -0.0436287
0.037776627 -0.13905008 -0.15363583 0.038056087 0.03643457 -0.12644577 -0.16690445 -0.024782076

weight f4 [64, 64]
00000000: 0b47 53bd b5b8 56bd f4ec 203d db0a 1f3e
00000010: 82f5 cebc 8d0f c23d 89c3 61bc 0f01 13be
00000020: 7094 b9bb 6e41 103e b432 07bd bbd7 c4bd
00000030: 8a5e 0fbd 8478 003d 9a61 823d b335 7cbb
00000040: 15c8 54bc d4f3 8cbd ba2e 4ebd 048f 20ba
00000050: 4084 21bc d67b a83c bd7c a83b 2c1e 923c
00000060: 216d e0bd 82a7 07be 1907 55bd c76f 8cbc
00000070: 85bc 413d 215e 21be d718 aa3d bba1 8bbd
00000080: 75c9 8d3d 53e6 63bd dbe8 7fbd eae0 d33c
00000090: 3ca5 843d db1e 16bd 09fa 9abd 70db 9fbb
000000a0: c6ff b7bd 0705 23bd 5c30 ecbd 0ce3 263a
000000b0: 08b6 663d 2e48 3f3d 6cb4 f43d e4f8 e13c
000000c0: c4fc eabd 3b6c e43d ab4a ee3d 0082 3fbd
000000d0: 72f9 873d 2f98 493d ac0c 8b3a 4d9c c03c
000000e0: 7b45 afbd 9309 ccbd e796 8c3d 60b0 75bd
000000f0: 4273 883d 1559 863d 0407 e5bd 4da4 403d
00000100: eb51 0abc 4d0f b9bd b4cd 83bc ffb2 10be
00000110: b525 d93d 07d5 c4bd afb9 073e 5ee7 0b3c
00000120: 0e25 823c fbcf 04be bbe0 653d 0e42 c8bd
00000130: cb3d 533d a8bb fbbc 5fbb 46bc acb0 0d3d
00000140: e32e bfbd 8a85 1a3e 3e07 a9bd f89e 983d
00000150: b2b6 ddbd 114c 52bd dbb2 773c ee0a f7bd
00000160: 7742 a8bd 6946 383d ffaf 963d 0a10 e63c
00000170: 1d5f d3bb 5b63 dfbc 1231 e2bd 6478 eebc
00000180: 2da8 f3bc 6ccb 7ebd f08a 433d e1ba 48bd
00000190: 3263 c6bd b3c5 893d aac3 323a c841 10bb
000001a0: 1989 df3d d4a0 9fbd dbee 6abd a9ba 093e
000001b0: 29da fabc f1ce 273e 5a58 063d 017d e1bb
000001c0: dde7 673c b9a7 d0bc cec9 b53d d45d e93d
000001d0: 7d53 a2bb 8366 ccbd eafe 6a3d 41f7 c3bd
000001e0: 128f c53d 1847 fcbd 5855 193d 0ff2 e43d
000001f0: 3825 793d ed4b ce3d 95f5 fc3d f555 2ebd
00000200: 62e2 e8bd d1c9 85bd b063 12bc dafc eebd
00000210: dc3f c6bd d018 18bd 763a 1e3c 9ee4 25be
00000220: ad5d a8bc 101f c83c c2c5 93bc c37b aebd
00000230: 5fdc d33c 9a5e a0bb d815 b43c 50c3 0fbe
00000240: d05b 65bc bd0b 0e3e e6c4 a63d 2f8d 3fbd
00000250: 5b47 eabd 9f6a 28be 8857 e0ba 0525 acbb
00000260: f872 fd3d f5e0 e9bd f039 82bc f5d9 e03d
00000270: e083 7d3d 6d51 5b3d eda6 11be b819 3e3d
00000280: 6847 8cbc 7443 cdbb 03d2 1fbc b476 783d
00000290: b813 7b3d a6a8 57bd 9a54 fd3d b8ea 9cbd
000002a0: b8ff c1bd 2833 90bc 3c01 64bd 8478 013d
000002b0: 6363 d0bd a68a bdbc 9808 3cbd fb05 053d
000002c0: d40f 833d c3b4 68bd c3da 1abe 2e15 823c
000002d0: 4c10 233d b08d b2bc c0e6 b6bd 19f1 e0bd
000002e0: 4f35 33bd 8866 ea3d 029f b23c 3cef 29bd
000002f0: 6373 79bd a48e b43d e91a 7cbd 83fa 6cbd
00000300: 12e9 2bbd 032d bfbc 7cad 333a 0a26 f9bd
00000310: e769 8d3d bb4c 913d 43e5 093e d085 14bd
00000320: 6926 c73d 3328 3dbd 74b7 aabd b579 9cbd
00000330: 0873 f2ba 8998 063d ac4e 833d 79a7 06be
00000340: c66e 18bd 4136 0d3d dbbe f1bd c017 abb8
00000350: dfb9 a63d aba9 513d 0f96 98bd 7658 673d
00000360: 7f2f 14bd 9a94 e6bd 2a32 a3bd 4f5c 043d
00000370: f1ca e33d f096 323d d0ab fb3d 7c25 13be
00000380: 34b6 ed3c 76bd 833d 1e02 193d c708 d33d
00000390: 6d37 eabc 207e d6bd edeb f83c 74e1 473d
000003a0: e2ee efbd 9ff8 fa3d 7bf5 dfbd 627a c53d
000003b0: b191 dbbd e4e7 d13d d14a 42bd 0595 a2bd
000003c0: 0012 ac3d 58a2 f6bd 17b0 b63b 87bf 83bd
000003d0: 24f4 d93d a47b ef3a 0439 613d a40f 83bd
000003e0: eed5 c2bd 7c17 99bd 3999 593d 2089 d43d
000003f0: 4211 023e 7b26 a8bc edc4 c43d 28f1 ecbc
-0.051581424 -0.052422244 0.039288476 0.15531485 -0.025263552 0.09475622 -0.013779529 -0.14355873
-0.005663447 0.1408746 -0.03300734 -0.0961146 -0.03500227 0.031364933 0.06366272 -0.0038484156
-0.012987156 -0.06882444 -0.05033753 -0.00061248266 -0.009858191 0.020566862 0.005141823 0.017836653
-0.10958315 -0.13247493 -0.052008722 -0.017143143 0.047298927 -0.15758564 0.08305519 -0.06817957
0.069231905 -0.055639576 -0.062477928 0.025864083 0.064768285 -0.03665052 -0.07567222 -0.004878454
-0.08984332 -0.039799716 -0.11532661 0.000636623 0.056325942 0.046699695 0.11948475 0.0275845
-0.114739925 0.11153456 0.116353355 -0.046754837 0.06639375 0.0492174 0.0010608635 0.02351203
-0.08558174 -0.09962764 0.0686472 -0.059982657 0.06662609 0.0655996 -0.11182979 0.04703169
-0.008442382 -0.090361215 -0.016089298 -0.14130782 0.10602895 -0.09610944 0.13254426 0.008539049
0.01588681 -0.12969963 0.056122523 -0.09778224 0.051572602 -0.03072913 -0.012129634 0.034592316
-0.09335115 0.15090004 -0.082533345 0.07452196 -0.10825862 -0.051342074 0.015118326 -0.120626315
-0.08215802 0.044989023 0.07357787 0.02808382 -0.0064505474 -0.027269056 -0.11044516 -0.029110141
-0.029743278 -0.062205717 0.047739923 -0.049006347 -0.09686889 0.06727161 0.00068193174 -0.0022011865
0.10914821 -0.077943474 -0.057356697 0.13450111 -0.030621605 0.16387536 0.032799102 -0.0068813567
0.014154402 -0.025470601 0.08876382 0.113948494 -0.0049538002 -0.0998049 0.05737201 -0.09568644
0.09646429 -0.123182476 0.037434906 0.111789815 0.06082651 0.100730754 0.123515286 -0.042562444
-0.11371304 -0.06532634 -0.0089349 -0.11669321 -0.09680149 -0.037133038 0.009657493 -0.16200492
-0.02055248 0.024428874 -0.018038634 -0.085196994 0.025861917 -0.00489409 0.021983072 -0.1403935
-0.013998941 0.13871665 0.08143024 -0.046765503 -0.11439391 -0.16446923 -0.001711593 -0.0052534365
0.12375444 -0.1141986 -0.015896767 0.10979072 0.061893344 0.05354445 -0.14223833 0.046411246
-0.017123893 -0.0062641446 -0.009754661 0.06066008 0.061298102 -0.05265107 0.12369652 -0.076619565
-0.094726026 -0.017602518 -0.05566524 0.031609073 -0.101752065 -0.023137402 -0.045906633 0.032476407
0.06399503 -0.056813013 -0.15122513 0.01587924 0.039810464 -0.021796077 -0.08930731 -0.10983486
-0.04375201 0.114453375 0.021804336 -0.041487917 -0.060901057 0.08816269 -0.0615491 -0.057856094
-0.04197032 -0.023336893 0.00068541593 -0.121654585 0.06904965 0.07094713 0.13466363 -0.036260426
0.09724123 -0.046180915 -0.08335772 -0.07640401 -0.0018497417 0.032860313 0.0641149 -0.13149823
-0.037215017 0.03447557 -0.11803981 -8.158339e-05 0.08140921 0.0511872 -0.074504964 0.056480847
-0.03617811 -0.11258812 -0.079685524 0.032314595 0.111226924 0.043600976 0.1228863 -0.14369768
0.029017545 0.06432621 0.037355535 0.103044085 -0.028590882 -0.10473275 0.030385936 0.048798993
-0.11715485 0.12254452 -0.109354936 0.09642483 -0.10721148 0.10249308 -0.04743463 -0.079385795
0.08401871 -0.12042683 0.0055751908 -0.06433015 0.10642269 0.0018271101 0.054986015 -0.063994676
-0.0951346 -0.074751824 0.05312464 0.10377717 0.12701896 -0.020526161 0.09607873 -0.028923586

bias f4 [64]
00000000: 2a45 81bd 9d52 7f3d ffba 22be 76e8 f83d
00000010: fdc0 31be 4cdf ffbd c42a 90bd de99 643d
00000020: 0471 e53c 330a 15be c419 f0bc 4417 3b3d
00000030: 2fe3 7dbd f4bc 76bd a625 d33d 31db cabc
00000040: 84c2 79bd 4073 82bc cb78 c7bb 34e7 86bd
00000050: 74d3 513d f709 afbd 6119 9bbd 552f af3d
00000060: 6339 303d dc28 22bd 80f3 5abb ccf9 a73b
00000070: e449 adbd 576f b73d 8f36 0bbe f6d4 a43d
00000080: b5ff ba3d 15b3 a6bd ca35 e2bc 6115 9abd
00000090: 1ee8 6fbd ae4c b4bd 49a1 a0bd acee b33c
000000a0: 730e 13be b5bf 1a3d 466e bbbd 6ff2 adbd
000000b0: 843b b2bd 2974 1e3e 286b 92bd ac12 b6bc
000000c0: fd10 ffbd 0838 d13d 709e 053e 4a62 1a3c
000000d0: b2f6 d3bd c6be 16bd 0e5e 3c3d 17da 44bd
000000e0: 84fe c9bd f2df 96bd c154 b5bd e7df 05bd
000000f0: 659b 02bd 3fe8 8fbd 3024 15be e25f 923c
-0.0631202 0.062334646 -0.15891646 0.121537134 -0.17358775 -0.124937624 -0.07039407 0.0558108
0.028007992 -0.14554672 -0.029309161 0.045676485 -0.061984237 -0.060238793 0.10309915 -0.024762722
-0.06097652 -0.015924096 -0.0060873977 -0.06587067 0.051227048 -0.085468225 -0.075732 0.0855395
0.04302348 -0.039589748 -0.0033409297 0.0051262137 -0.08461359 0.08956783 -0.13595031 0.080484316
0.091308035 -0.08139626 -0.02761354 -0.07523609 -0.058570974 -0.08803688 -0.07843263 0.021964394
-0.1436098 0.037780482 -0.09151892 -0.08493506 -0.08702758 0.15473999 -0.07149345 -0.0222257
-0.12454412 0.10215765 0.1304872 0.009422848 -0.10349788 -0.03680303 0.045988135 -0.04805955
-0.09862998 -0.07366933 -0.08854056 -0.032684233 -0.031886477 -0.07026719 -0.14564586 0.017867986

weight f4 [64]
00000000: c06e 7d3f 994d 763f 0000 803f 77e8 803f
00000010: 0000 803f 0000 803f 9bbf 753f 0000 803f
00000020: 0000 803f 0000 803f 701e 813f 0000 803f
00000030: 0000 803f 984d 763f 1e71 833f 0000 803f
00000040: 0000 803f fe78 6e3f 0000 803f 0000 803f
00000050: 0000 803f 0fe6 7e3f 5770 733f 0000 803f
00000060: 0000 803f 0000 803f 0000 803f 0000 803f
00000070: a1ae 6f3f 984d 763f 449a 773f 0000 803f
00000080: 0000 803f 984d 763f 917b 713f 0000 803f
00000090: 0000 803f c0df 733f 6aec 813f 0000 803f
000000a0: 905a 853f 0b45 813f 0000 803f 0000 803f
000000b0: 984d 763f 0000 803f 0000 803f 0000 803f
000000c0: 75d5 843f fc59 7e3f 0000 803f 03c1 803f
000000d0: 0000 803f ee63 7a3f b5c1 7f3f 4046 7a3f
000000e0: 0000 803f ee0b 823f 0000 803f 0141 883f
000000f0: 0000 803f 0000 803f f86e 793f 0000 803f
0.98997116 0.96212155 1.0 1.0070943 1.0 1.0 0.9599549 1.0
1.0 1.0 1.0087414 1.0 1.0 0.9621215 1.0268896 1.0
1.0 0.9315337 1.0 1.0 1.0 0.9956979 0.9509329 1.0
1.0 1.0 1.0 1.0 0.9362584 0.9621215 0.96719766 1.0
1.0 0.9621215 0.9432917 1.0 1.0 0.9526329 1.0150273 1.0
1.0418262 1.0099195 1.0 1.0 0.9621215 1.0 1.0 1.0
1.0377642 0.99356055 1.0 1.0058903 1.0 0.9780873 0.9990495 0.97763443
1.0 1.0159891 1.0 1.0644838 1.0 1.0 0.9743495 1.0

bias f4 [64]
00000000: b94e 663d 5d48 4bbb 4421 70bd 8490 b43c
00000010: 45eb 08bd 494a 8a3d bd03 e8bc f0d3 6dbd
00000020: aec3 65bd aca8 353a 6174 24bd 2d44 003d
00000030: 66b9 a9bb a4cb 953c 1779 323d c3fd 1f3d
00000040: 802d 11bc 14be cbb9 44a3 51bd c9d6 c23b
00000050: ca71 c73c cb9c 73bd cd5e 67bd 9d4b 3bbb
00000060: d644 cbbc e11f 063d 700c ed3c 76e7 e93b
00000070: 3e9c a8bc 3fbc 033c 5702 30bb 94ed 45bb
00000080: 4258 dbbc 297f 57bd f8f7 07bc 3e1f 24bd
00000090: 1190 9c3c 9891 fb3c c3c1 c5bb dc6b 5dba
000000a0: 4abf 21bd a1f2 3a3d f951 23bd 8436 313d
000000b0: 54e2 26bc 283a c13b 92d3 2c3c b6b5 763d
000000c0: 18fc ea3c c0a1 6a3d 1d72 dcbc 55ae 153d
000000d0: c21d 54bd cccd 78bc 214f 92bc 739d e0bc
000000e0: 0c47 0dbd 3e28 7bbc e43a cf3b 29a2 b03c
000000f0: 5565 613d 5471 543d f88f 013d 3ba7 9e3c
0.05622742 -0.0031018474 -0.058625475 0.022041567 -0.033427496 0.0675245 -0.028322095 -0.058063447
-0.056094818 0.0006929736 -0.04015005 0.031315017 -0.005179572 0.01828558 0.04357251 0.039060365
-0.008860946 -0.00038860796 -0.051181093 0.0059460145 0.024346251 -0.0594757 -0.056486893 -0.0028579005
-0.024813097 0.032745246 0.028936595 0.007138188 -0.020582315 0.008040487 -0.0026856863 -0.0030201422
-0.026775483 -0.052611504 -0.008298866 -0.040068857 0.019111665 0.030709073 -0.006035061 -0.0008446553
-0.039489068 0.045641545 -0.039873097 0.04326488 -0.010185797 0.0058968253 0.010548489 0.060231887
0.02868466 0.057283163 -0.026909882 0.03654321 -0.05178619 -0.015185785 -0.017859997 -0.027418828
-0.034491584 -0.015329419 0.006324159 0.021561699 0.05502828 0.05186589 0.03163144 0.019366851

running_mean f4 [64]
00000000: 5036 8b48 2925 fc42 0000 0000 e02f 8848
00000010: 0000 0000 0000 0000 ab08 6f48 0000 0000
00000020: 0000 0000 0000 0000 c139 a747 0000 0000
00000030: 0000 0000 5d80 7443 2315 6848 0000 0000
00000040: 0000 0000 c6b6 2148 0000 0000 0000 0000
00000050: 0000 0000 c4f1 e647 1ceb ea46 0000 0000
00000060: 0000 0000 0000 0000 0000 0000 0000 0000
00000070: f427 0948 1f4e 0343 ab05 ed47 0000 0000
00000080: 0000 0000 cb2c dc44 ffd1 8148 0000 0000
00000090: 0000 0000 3eae 9a48 40a2 b647 0000 0000
000000a0: da61 7c47 7c49 c647 0000 0000 0000 0000
000000b0: c14d 3744 0000 0000 0000 0000 0000 0000
000000c0: ac9d 4c45 d4af d048 0000 0000 a85f b048
000000d0: 0000 0000 14ed 3842 3d00 1848 c686 8348
000000e0: 0000 0000 6c8f 9048 0000 0000 32a9 6248
000000f0: 0000 0000 0000 0000 9bc5 7948 0000 0000
285106.5 126.07258 0.0 278911.0 0.0 0.0 244770.67 0.0
0.0 0.0 85619.51 0.0 0.0 244.50142 237652.55 0.0
0.0 165595.1 0.0 0.0 0.0 118243.53 30069.555 0.0
0.0 0.0 0.0 0.0 140447.81 131.30516 121355.336 0.0
0.0 1761.3998 265871.97 0.0 0.0 316785.94 93508.5 0.0
64609.85 101522.97 0.0 0.0 733.2149 0.0 0.0 0.0
3273.8545 427390.62 0.0 361213.25 0.0 46.23152 155648.95 269366.2
0.0 296059.38 0.0 232100.78 0.0 0.0 255766.42 0.0

running_var f4 [64]
00000000: 7980 2851 beaa db47 975c a33d 05c2 1e51
00000010: 975c a33d 975c a33d 8847 ea50 975c a33d
00000020: 975c a33d 975c a33d ea01 534f 975c a33d
00000030: 975c a33d 5a83 ce48 3142 e450 975c a33d
00000040: 975c a33d 8569 5b50 975c a33d 975c a33d
00000050: 975c a33d 2afe d54f ab68 944e 975c a33d
00000060: 975c a33d 975c a33d 975c a33d 975c a33d
00000070: 212c 3250 4b3f ee47 b638 fa4f 975c a33d
00000080: 975c a33d a876 a74b ac0f 0151 975c a33d
00000090: 975c a33d 9789 4951 c14d 9e4f 975c a33d
000000a0: 29b1 1b4f 97ae db4f 975c a33d 975c a33d
000000b0: 0124 684a 975c a33d 975c a33d 975c a33d
000000c0: 3b6a 2e4c c5a1 b351 975c a33d 5087 8f51
000000d0: 975c a33d 206f 2646 fd05 3a50 0724 1751
000000e0: 975c a33d 4266 3251 975c a33d 11fd e950
000000f0: 975c a33d 975c a33d 4cc8 0b51 975c a33d
4.523187e+10 112469.484 0.079766445 4.2616246e+10 0.079766445 0.079766445 3.1444451e+10 0.079766445
0.079766445 0.079766445 3.540118e+09 0.079766445 0.079766445 422938.8 3.0636345e+10 0.079766445
0.079766445 1.4724503e+10 0.079766445 0.079766445 0.079766445 7.180408e+09 1.2449437e+09 0.079766445
0.079766445 0.079766445 0.079766445 0.079766445 1.1956946e+10 121982.586 8.396041e+09 0.079766445
0.079766445 2.1949776e+07 3.4644607e+10 0.079766445 0.079766445 5.40998e+10 5.3117916e+09 0.079766445
2.6120788e+09 7.3713044e+09 0.079766445 0.079766445 3.8033922e+06 0.079766445 0.079766445 0.079766445
4.5721836e+07 9.643915e+10 0.079766445 7.705631e+10 0.079766445 10651.781 1.2483818e+10 4.057153e+10
0.079766445 4.7888736e+10 0.079766445 3.140541e+10 0.079766445 0.079766445 3.7522555e+10 0.079766445

weight f4 [64]
00000000: 1c04 833f b8af 7c3f 9a15 723f 90be 793f
00000010: a3ec 763f a997 7b3f 6ec1 813f 56e8 823f
00000020: 4b1d 7d3f ede1 703f 93e4 823f 8dcb 773f
00000030: 12a4 7f3f 1afd 743f 9ae9 883f 008c 803f
00000040: 0000 803f fbdd 773f 1236 813f 0000 803f
00000050: 7ab5 7c3f db71 7a3f 7f8f 813f 407b 7f3f
00000060: 8e75 823f 0000 803f 0000 803f ceb7 703f
00000070: 71f6 833f 4c21 823f 4bc6 853f c52d 863f
00000080: 45c8 793f 67d7 7a3f abc6 7c3f 0b8e 743f
00000090: 9797 7b3f 08b9 823f c6f0 793f 1b06 793f
000000a0: ee74 803f 2bd7 843f 0dd9 843f acef 763f
000000b0: 0000 803f 624b 813f 0983 7b3f cd73 813f
000000c0: b759 813f f5bb 773f d338 783f a7eb 883f
000000d0: ce4b 853f 3e05 733f 0022 843f 2f94 783f
000000e0: 9394 7d3f 1823 783f 4569 793f a829 793f
000000f0: 3e2d 783f a5b0 7f3f fd49 853f 5158 813f
1.0235629 0.98705626 0.9456421 0.975564 0.9645483 0.9827829 1.0137155 1.0227153
0.9887282 0.94094735 1.0226005 0.9679497 0.99859726 0.956987 1.069629 1.0042725
1.0 0.9682309 1.0094626 1.0 0.9871441 0.9782998 1.0121917 0.9979744
1.0192125 1.0 1.0 0.94030464 1.0309583 1.0166411 1.0451139 1.0482718
0.9757121 0.9798493 0.98740643 0.9552924 0.9827818 1.0212717 0.97633016 0.9727494
1.0035684 1.0378164 1.0378739 0.9645946 1.0 1.010113 0.9824682 1.0113465
1.0105504 0.96771175 0.96961707 1.0696915 1.0413759 0.94929874 1.0322876 0.9710111
0.9905483 0.9692855 0.97426254 0.9732919 0.96944034 0.99878913 1.0413204 1.0105077

bias f4 [64]
00000000: ec0d db3b 53bc 6a3c a10e d73c 5952 4b3d
00000010: ed13 28bd 2571 753b b65d 24bd 63e9 76bc
00000020: a087 bb3a 9d17 1cbc e619 883c 2335 4cbd
00000030: 9bca 0bbd 3030 923c dff2 3bbc 3583 ba3b
00000040: 88c5 9bbc cf3d 6d3d d8be 1dbd e8d7 ce3b
00000050: a95e a43c c7b9 e13c 3e65 91bc f3cb 053d
00000060: 4afe ddbc 8962 343d f060 79bb d26e 6e3d
00000070: bee5 1a3c f679 9dbb 6074 8e3c 4d6c acbc
00000080: ccbf 973d 4e36 d73c ec97 943d 3c88 913c
00000090: 33c8 76bc f692 29bd ae90 efbc 23f7 e1bc
000000a0: a052 39bc ab13 32bd 84dd 8bba e685 3d3d
000000b0: d4e4 48bc be3a 4abc 0fb7 573d dd38 d43b
000000c0: 2241 4c3d 11f8 73bd deb7 3c3d 41b0 c1bc
000000d0: 4693 15bd bc98 843c 8e62 babc 9ec4 bebc
000000e0: b493 50bd 2110 c03c 1d34 8cbc 0839 1f3c
000000f0: d6e5 c8bb 3162 e4bc 916f 5bbd 6adb 013c
0.006685009 0.014327127 0.026252093 0.04963908 -0.041034628 0.0037451473 -0.040128432 -0.015070292
0.0014307387 -0.009527114 0.016613912 -0.049855363 -0.034128767 0.017845243 -0.011471479 0.0056919106
-0.019015089 0.057920273 -0.03851208 0.006312359 0.020064669 0.027554406 -0.017748471 0.032665204
-0.027098794 0.044039283 -0.0038052164 0.058211155 0.009454189 -0.0048057986 0.017389476 -0.021047736
0.07409629 0.026271012 0.07255539 0.017765157 -0.01506238 -0.04139992 -0.029243793 -0.027583664
-0.011311203 -0.043475788 -0.0010670875 0.046270274 -0.012261588 -0.012343107 0.052664813 0.006476505
0.049866803 -0.059562746 0.046073787 -0.023643615 -0.036517404 0.01618611 -0.022752073 -0.023287114
-0.05092211 0.02344519 -0.017114693 0.009718187 -0.006130914 -0.027878853 -0.053573195 0.007925848

running_mean f4 [64]
00000000: e7fd 093c 474a 9b3e f4a0 2b3d 33ce 3c3e
00000010: 64ed e13b dc1f 453c af95 4e3e 4681 203c
00000020: cceb fd3e de84 523d 1ece 893f 7051 853f
00000030: effa b73e 5fa9 393f 13f8 fe3c e550 543e
00000040: 0000 0000 8b3f 7b3e fb5d c93e 0000 0000
00000050: 1ab1 8e3f f1f9 ec3e 9f55 6a3a a03b 513f
00000060: 508a a93c 0000 0000 0000 0000 632b 703f
00000070: b9ce 3236 9040 833f abe3 f93b de50 ac3c
00000080: db6c 923e 7129 283f eb1e 0b3f 5740 933b
00000090: adfe 063d ac30 363e d616 fc3c 9c61 c03d
000000a0: cf76 863b 0a01 7f3d 3a86 8c36 254a db3d
000000b0: 0000 0000 e381 4b3f 1320 583f 74f6 993f
000000c0: 39e4 883d d199 163e 57a5 f43e 8b51 e63c
000000d0: 5e3d c53d 6b04 103f 1229 903e 9431 963c
000000e0: 8845 b93a cb46 4d3f bedd f73d 0355 263f
000000f0: 0f4b 9b3d 9e09 253f cd4d a33e f71f 323f
0.008422351 0.30330107 0.041901544 0.18438034 0.0068947542 0.012031522 0.20174287 0.009796446
0.4959396 0.051396243 1.0766027 1.0415478 0.35933635 0.72524065 0.03112415 0.20733984
0.0 0.24535958 0.39329514 0.0 1.1147797 0.4628444 0.000893915 0.81731606
0.020695835 0.0 0.0 0.938162 2.6644395e-06 1.0254078 0.007626017 0.021034654
0.28598675 0.65688235 0.5434405 0.004493754 0.03295772 0.17792004 0.030772608 0.093936175
0.0041035186 0.06225685 4.187951e-06 0.10707501 0.0 0.79495066 0.8442394 1.2028337
0.06684155 0.14707114 0.47782394 0.028115055 0.096308455 0.5625674 0.28156334 0.018334188
0.0014135102 0.80186146 0.12102841 0.6497347 0.07582676 0.644678 0.31895295 0.69580024

running_var f4 [64]
00000000: dc90 a73d a373 243f 0f82 2f3e 5614 053f
00000010: 4b08 b03d 633b b93d 298b 313e 1d54 a53d
00000020: a184 1040 69a4 ca3d 73b0 2c41 734d f840
00000030: fb14 b13f 5e0e 9f40 156e a73d ebb7 283e
00000040: 975c a33d 2fa1 083f fc57 b13f 975c a33d
00000050: 6584 2d41 1c4c 2740 af7b a33d 583e 8840
00000060: 40bd a63d 975c a33d 975c a33d 9180 d240
00000070: 9d5c a33d ae27 d140 0ac7 a73d da82 a53d
00000080: f97e 7d3f 909b a640 6a9c 6e40 4353 a83d
00000090: 8470 b53d 3143 1f3e 17af 0d3e ca94 be3d
000000a0: a8a7 a73d 6d3c b13d aa5c a33d 7df0 b53e
000000b0: 975c a33d 2971 1d40 e019 ea40 b035 5341
000000c0: 2dbe cc3d acad d13d 23f7 953f ac4e a93d
000000d0: 15c5 ef3d 88f2 5a40 23bd 753e 6415 e13d
000000e0: 08c5 a33d 2eee d840 a049 0f3e b4d2 5a40
000000f0: 3f9f 6b3e bade 8240 4ad1 d43f 5cdf 9940
0.081819266 0.6423895 0.17139457 0.51984155 0.08595332 0.0904453 0.17338242 0.08072684
2.258095 0.0989464 10.793078 7.7594543 1.3834528 4.970504 0.08175293 0.16476409
0.079766445 0.53370947 1.3854976 0.079766445 10.844823 2.6140203 0.07982575 4.2576103
0.08141565 0.079766445 0.079766445 6.578194 0.07976649 6.5360937 0.081922606 0.080815986
0.9902187 5.2064896 3.7282968 0.08219006 0.08859351 0.15552975 0.13836323 0.09305723
0.08186275 0.086541034 0.07976659 0.3553504 0.079766445 2.4600317 7.3156586 13.200607
0.09997211 0.102382034 1.1716045 0.082669586 0.11707512 3.421053 0.23997931 0.10990408
0.07996565 6.7790747 0.1399293 3.4191103 0.23009966 4.0896883 1.662637 4.8085155

weight f4 [128, 128]
00000000: b00d 673d c077 93bc 545a f03d 6c31 8f3d
00000010: 4099 ce3d 3423 6a3c 5ead dd3d 9c3c e93d
00000020: e61c a33d bf48 6abd 7600 cf3d f93d 4cbd
00000030: 5bde 363d b3b2 db3d 8517 983d 8206 63bc
00000040: ff37 ba3c 1881 263d 0666 b23c 98a6 bc3b
00000050: 4631 b7bd ca69 e03d 4df8 133d fdb6 a93d
00000060: 1f31 ee3d 6d0e c4bd 3d9b fcbc 82c4 9d3a
00000070: 6db9 8f3d 2abf 51bb a4c8 253c f2f1 983d
00000080: a82e 473c 579f e13d c98c 0e3d c0e1 563d
00000090: c36f 8dbc 43d8 d33c e78b b73d 7627 e2bc
000000a0: dbb6 00bd 35b9 68bc 9056 d3bc e587 fabd
000000b0: b682 d93d 68eb 6f3c 8904 343d 692b 6bbd
000000c0: 64a0 f93b b324 c83d 220f 68bc bb85 053d
000000d0: fce1 dd3c c650 15bd 7c9a 103a bda8 24bd
000000e0: a09b 1cba be01 6a3d 14f6 4bbd d54c b43d
000000f0: c066 2c3d 04be f4bd 49b0 e53d 2cad 6abb
00000100: 6d79 febc b29b 5f3d 0859 fbbc 7f33 ac3c
00000110: baf4 1b3d 1d1c 8a3c be9f c03b c1f7 debd
00000120: 84fb 92bc d005 bebd 3448 2bbd 72d7 bc3c
00000130: f6d3 983d 717e 533d 44c7 503d c29f ba3c
00000140: ff7a 85bd 9a2d cd3c 6db7 963c e6f7 e73c
00000150: 8513 0e3d 6438 df3c c133 d53d 63a4 2ebd
00000160: 9283 94bd 5431 4abd 943c 363c 29e7 babd
00000170: 70f1 dabc b2ad e1bc 3a3a 8ebc 95f4 b1bd
00000180: 4a14 1c3c 5588 3abc 026c 84bd c089 673b
00000190: 0bca 6dbd 95a3 153e d0fc fdb9 5b6d 363d
000001a0: c37b 15bd f5af 8fbd 7fc2 62bd 17e6 f3bc
000001b0: 0482 e5bb 7dd7 033d d311 19bd b2d4 1c3d
000001c0: ef11 643d fef4 0cbd 9a7a a9bd 03a4 c03c
000001d0: 2428 113d eca9 063e b8e9 1dbc 8fa5 5dbc
000001e0: 0ae1 6e3d 7cee bc3d b6c4 023d a01f 7bbd
000001f0: fa89 a6bc a5cf 7c3d a611 9c3d c51b af3d
00000200: eaf6 b83d d44b f4bc 145a 143d 52bb a63c
00000210: c0f0 adbd 2d61 ac3d cd9e 24bd ea52 803d
00000220: d989 91bb e811 a0bd bd70 e53d 903f 713d
00000230: e063 b2bc cf33 b83c 6bf7 003e 4af5 4dbd
00000240: b6f6 e0bd 9f83 d53d de27 d8bd 789e c23d
00000250: 3776 18bd 0d44 873d 1f0b 9c3d 2872 1dbd
00000260: 8500 473d 6e0a c93c 6c5e 053c 4c34 573d
00000270: 1c56 20bc 1c79 a73d 3b6a b93d b214 92bd
00000280: c6a9 47bd fef0 b2bc 68c9 903d f840 24bc
00000290: 59e1 453d f083 133d 12a7 f83d 2836 263d
000002a0: d263 653c 8ce5 e0bc e8e4 173d 9b64 883d
000002b0: 6f9d e43c e211 a53d eded 183d 0bd4 8c3d
000002c0: 7a8e 693c 8576 fc3d 29f3 3d3d 657b 123d
000002d0: 411e 783d a80c 27bd e20a f83d c378 873d
000002e0: 88ff b53b 39d1 053e 85b9 c6bc 28f7 32bd
000002f0: 3950 353d 66be 0e3b 9870 b03c f3de 813b
00000300: f035 013e 5b7b 773d 2e94 92bb 6a5d 243c
00000310: 9590 a8bd 59e8 4d3c 29fb b4bd eb3a 323d
00000320: da7a 9bbd c90d 943d ea2b 20bd 8b96 233b
00000330: 3e7e 15bd 9478 cabb 8da5 a7bd a816 a53b
00000340: c5d5 043c 1087 5b3c 5659 70bd b808 cdbc
00000350: b3fe bbbd 8aca d93c 450b 2ebd d252 8b3d
00000360: 0d9b b93d 36d6 033d 73ce 5a3d 95ab 0e3d
00000370: f37f 103d b0ab 4abc 1e6b 3a3d a318 8bbd
00000380: 7012 bfbd 411f 093c a6d4 833d c026 adbd
00000390: a5b4 7fbd 9549 033c 7e29 e6bd 5d9d bb3d
000003a0: 0eaf 783b c16c c03c 1091 e13d a40c e1bc
000003b0: a94f 4a3d ff48 a3bd feb9 1dbd 688d 5bbd
000003c0: 9e08 043e 8215 bbbc 67fe 403c a02f 3b3d
000003d0: 5c85 8c3d fb88 393d 640e 103e 59ac 84bd
000003e0: ca51 9c3d bdfd d7bd 08ca f13c 8bd3 babc
000003f0: 0c09 a8bd 5dea 1dbd d827 293d f06b 9fbd
0.056409538 -0.018001437 0.11735979 0.06991848 0.10087824 0.01429062 0.10824083 0.113885134
0.07964496 -0.057198282 0.1010751 -0.04986379 0.04464565 0.107274435 0.07426361 -0.013856532
0.02273178 0.040650457 0.021777164 0.005757164 -0.08944945 0.10957678 0.03612547 0.08286855
0.11630463 -0.09573064 -0.030835742 0.0012036713 0.07017789 -0.0032004812 0.010118637 0.074680224
0.01215712 0.1101672 0.034802232 0.052461386 -0.017265206 0.025859958 0.08962231 -0.027606707
-0.031424385 -0.014204313 -0.025798112 -0.12232951 0.10620634 0.014643528 0.043949638 -0.057414446
0.007617997 0.09772625 -0.014163764 0.03259824 0.027085297 -0.036453985 0.0005516184 -0.040199984
-0.00059741177 0.057130568 -0.049795225 0.08803717 0.042090178 -0.11950305 0.11215264 -0.0035808785
-0.03106376 0.054591842 -0.030682102 0.021020649 0.038075186 0.016859109 0.0058784178 -0.10887099
-0.017942198 -0.092784524 -0.041816905 0.023051951 0.07462303 0.051634256 0.050971285 0.022781257
-0.065176 0.025046159 0.018398011 0.02831645 0.034686584 0.027248569 0.10410262 -0.04263724
-0.072516575 -0.04936345 0.011122841 -0.091261216 -0.026726454 -0.027548645 -0.017361749 -0.086892284
0.009526322 -0.011385043 -0.06465913 0.0035329908 -0.05805401 0.14613183 -0.0004844428 0.044537883
-0.03649498 -0.07015983 -0.055361267 -0.029772801 -0.0070040245 0.032187928 -0.037370514 0.03828878
0.055681165 -0.03441333 -0.082753375 0.023515707 0.03543867 0.13150758 -0.009638242 -0.013528242
0.058320083 0.09225175 0.03192588 -0.061309457 -0.020329464 0.061721463 0.07620554 0.085502185
0.0903147 -0.029821314 0.036218718 0.020352993 -0.08493185 0.08416972 -0.040190507 0.062658146
-0.0044414815 -0.07815915 0.11203144 0.05889851 -0.02177614 0.022485642 0.12594382 -0.050282754
-0.109845564 0.10425495 -0.10554479 0.09502882 -0.037222113 0.066047765 0.07619309 -0.038438946
0.04858448 0.024541106 0.008140188 0.05254011 -0.009786155 0.08177397 0.09053465 -0.071328536
-0.048745893 -0.02184343 0.07069665 -0.010025255 0.04831061 0.036014497 0.12141241 0.04057899
0.01400085 -0.027453206 0.037083536 0.06659814 0.027907101 0.080600515 0.03733628 0.068763815
0.0142551605 0.12327293 0.046374474 0.03576221 0.060575727 -0.040783554 0.12111451 0.0661483
0.0055541433 0.13068093 -0.024258384 -0.043692738 0.04426596 0.0021780967 0.021538064 0.003963345
0.12618232 0.060420375 -0.004473231 0.010032037 -0.08230702 0.012567603 -0.088369675 0.04351322
-0.075917915 0.07229192 -0.03910438 0.0024961557 -0.036497347 -0.006178925 -0.08185873 0.005038101
0.008107607 0.013398901 -0.058678947 -0.025028571 -0.091794394 0.026585836 -0.042491216 0.06802906
0.09062777 0.03218671 0.05341954 0.034831602 0.035278272 -0.012370035 0.04551231 -0.067918085
-0.093296885 0.008369268 0.06437044 -0.084546566 -0.062428135 0.008013149 -0.11238383 0.09160874
0.0037946138 0.023489358 0.110139966 -0.027471848 0.049392376 -0.07972907 -0.038507454 -0.053601652
0.12893912 -0.022837404 0.011779404 0.045699716 0.06861374 0.04529665 0.1406799 -0.06478185
0.076327875 -0.105464436 0.029515281 -0.02280595 -0.082048506 -0.038553584 0.041297764 -0.07784259

bias f4 [128]
00000000: 5ded b4bd cf4e df3d ffcd 97bc 2fb5 2e3c
00000010: fa9b bf3d 65d1 703d c1ae cfbd 4e4b e7bd
00000020: 5995 48bc 10f4 54bd 316b 06bb 6d4e 4c3d
00000030: 9d83 c03d 7a26 a73d d56b a23b 8afe 793d
00000040: 0958 51bd 10a7 a6bc f0d8 1f3b d420 a73d
00000050: f015 78bc f020 9b3d 477a f0bd a5ce 97bc
00000060: 3e75 2abd ac16 f83c 04b0 f4bd afaa c03d
00000070: 6418 a13c 8490 18bc 173f 793d 827c 4c3d
00000080: 94a3 57bd a99c b63d 4e00 233d 2f44 973d
00000090: 273d 0dbc c8d0 6dbd 19b3 863d 3fd4 e9bd
000000a0: 352e 87bd 30e2 273c 2243 86bd 629e 76bd
000000b0: 8230 0f3d b8d5 aabd 288c 55bd 8ef9 00be
000000c0: db2c b7bd b88b 73ba e2bc 893c 6269 57bd
000000d0: b97a 32bc 55c9 803d cbe0 bcbd f66b d43d
000000e0: 7696 07bd 60a3 29bd 4716 b3bd 40c1 81bc
000000f0: d557 a43b 1502 10bd 9d72 313d 6808 40bb
00000100: f6d5 c43d 6cf8 c1bd 6283 87bd 8a66 86bd
00000110: a0ed 853d e909 e23d f622 05bd b8b3 d93d
00000120: a3f1 e9bd a7cc 403d 20b9 0d3d 72cc d8bd
00000130: b78a 9fbd 183b 0dbe 27d7 d63c cc9c 3b3d
00000140: 90e0 1cbd f4a3 cfbd cc9d b7bd 6569 813c
00000150: 18b1 343a ac0e 88bd 8c66 c63a 869d f8ba
00000160: 6e1f 62bd 71c4 1f3d 87ff f6bd 894a 68bd
00000170: 3077 8bbb e948 f7bc 27fe 233d 4d04 72bd
00000180: ca42 983b cff6 2bbd 5eeb 68bc 5ac4 4d3c
00000190: 21bf e1bc 5365 553d db8b 2fbd c3ad 923b
000001a0: c2cf 333d 5158 c1bd 8b08 37bd 1325 f1bd
000001b0: 72af 05be 3b63 793d da50 f5bd a30b ecbd
000001c0: 7f54 063d 5ead d1bd d5c0 89bd 67af 4a3d
000001d0: ea3f 7dbd 28fd 0fbd 0cda a2bc 8bdf a5bc
000001e0: 7bce 74bd 8725 c0bb 32e8 4bbd 0196 a3bd
000001f0: cddb d53b 7704 103b 49bb d1bd c992 c2bd
-0.08834336 0.109037034 -0.018530844 0.010663315 0.09355922 0.058793444 -0.101407535 -0.1129366
-0.0122426385 -0.05199057 -0.0020510668 0.04987948 0.09400103 0.08161636 0.0049567022 0.061033763
-0.051109347 -0.020343333 0.002439078 0.08160558 -0.015141949 0.07574642 -0.117420726 -0.018531153
-0.041615717 0.030284248 -0.11947635 0.09407555 0.01966495 -0.009311799 0.060851183 0.049923427
-0.052646235 0.08916599 0.039795212 0.07386052 -0.008620537 -0.058060437 0.06577129 -0.11417436
-0.0660061 0.010246798 -0.06555773 -0.06020964 0.03495837 -0.08341545 -0.052135617 -0.12595198
-0.089441024 -0.0009290534 0.0168137 -0.052590735 -0.010893517 0.06288401 -0.09222563 0.103721544
-0.033102475 -0.041415572 -0.087444834 -0.01583922 0.005015353 -0.035158236 0.043322194 -0.0029301886
0.09611122 -0.09471211 -0.06616856 -0.065625265 0.06539464 0.110370465 -0.032504044 0.10629982
-0.11423042 0.04707017 0.034600377 -0.1058587 -0.0779013 -0.13792074 0.02622564 0.04580383
-0.038300097 -0.101386935 -0.08965644 0.015797326 0.0006892844 -0.066434234 0.0015136763 -0.0018967844
-0.055205755 0.0390057 -0.12060457 -0.056711707 -0.0042561516 -0.030186133 0.0400373 -0.059086133
0.0046466338 -0.041983422 -0.014216272 0.012559021 -0.027556958 0.052098583 -0.042857986 0.0044762804
0.043899305 -0.09440673 -0.04468588 -0.117746495 -0.13055208 0.06088565 -0.11978312 -0.11525657
0.032795426 -0.10238145 -0.06726233 0.049483683 -0.06182853 -0.035153538 -0.019879363 -0.020248195
-0.059767228 -0.0058638486 -0.049781986 -0.07987595 0.0065264464 0.0021975318 -0.102408 -0.09500653
